…
            "W0720 16:52:41.977704 140264421463936 deprecation_wrapper.py:119] From /usr/local/lib/python3.6/dist-packages/keras/backend/tensorflow_backend.py:3295: The name tf.log is deprecated. Please use tf.math.log instead.\n",
            "\n"
          ],
          "name": "stderr"
        },
        {
          "output_type": "stream",
          "text": [
            "_________________________________________________________________\n",
            "Layer (type)                 Output Shape              Param #   \n",
            "=================================================================\n",
            "conv2d_1 (Conv2D)            (None, 28, 28, 6)         456       \n",
            "_________________________________________________________________\n",
            "max_pooling2d_1 (MaxPooling2 (None, 14, 14, 6)         0         \n",
            "_________________________________________________________________\n",
            "conv2d_2 (Conv2D)            (None, 10, 10, 16)        2416      \n",
            "_________________________________________________________________\n",
            "max_pooling2d_2 (MaxPooling2 (None, 5, 5, 16)          0         \n",
            "_________________________________________________________________\n",
            "flatten_1 (Flatten)          (None, 400)               0         \n",
            "_________________________________________________________________\n",
            "dense_1 (Dense)              (None, 120)               48120     \n",
            "_________________________________________________________________\n",
            "dense_2 (Dense)              (None, 84)                10164     \n",
            "_________________________________________________________________\n",
            "dense_3 (Dense)              (None, 10)                850       \n",
            "=================================================================\n",
            "Total params: 62,006\n",
            "Trainable params: 62,006\n",
            "Non-trainable params: 0\n",
            "_________________________________________________________________\n",
            "None\n",
            "Using real-time data augmentation.\n"
          ],
          "name": "stdout"
…
